### Model Architecture Summary ###
Model has 29841624 parameters.
MultiScaleAttnUNet(
  (enc1): Sequential(
    (0): DoubleConv(
      (block): Sequential(
        (0): Conv2d(3, 96, kernel_size=(3, 3), stride=(1, 1), padding=(1, 1))
        (1): BatchNorm2d(96, eps=1e-05, momentum=0.1, affine=True, track_running_stats=True)
        (2): ReLU(inplace=True)
        (3): Conv2d(96, 96, kernel_size=(3, 3), stride=(1, 1), padding=(1, 1))
        (4): BatchNorm2d(96, eps=1e-05, momentum=0.1, affine=True, track_running_stats=True)
        (5): ReLU(inplace=True)
      )
    )
    (1): CBAMBlock(
      (ca): ChannelAttention(
        (avg_pool): AdaptiveAvgPool2d(output_size=1)
        (max_pool): AdaptiveMaxPool2d(output_size=1)
        (fc1): Conv2d(96, 6, kernel_size=(1, 1), stride=(1, 1), bias=False)
        (relu): ReLU()
        (fc2): Conv2d(6, 96, kernel_size=(1, 1), stride=(1, 1), bias=False)
        (sigmoid): Sigmoid()
      )
      (sa): SpatialAttention(
        (conv): Conv2d(2, 1, kernel_size=(7, 7), stride=(1, 1), padding=(3, 3), bias=False)
        (sigmoid): Sigmoid()
      )
    )
  )
  (enc2): Sequential(
    (0): MaxPool2d(kernel_size=2, stride=2, padding=0, dilation=1, ceil_mode=False)
    (1): DoubleConv(
      (block): Sequential(
        (0): Conv2d(96, 192, kernel_size=(3, 3), stride=(1, 1), padding=(1, 1))
        (1): BatchNorm2d(192, eps=1e-05, momentum=0.1, affine=True, track_running_stats=True)
        (2): ReLU(inplace=True)
        (3): Conv2d(192, 192, kernel_size=(3, 3), stride=(1, 1), padding=(1, 1))
        (4): BatchNorm2d(192, eps=1e-05, momentum=0.1, affine=True, track_running_stats=True)
        (5): ReLU(inplace=True)
      )
    )
    (2): CBAMBlock(
      (ca): ChannelAttention(
        (avg_pool): AdaptiveAvgPool2d(output_size=1)
        (max_pool): AdaptiveMaxPool2d(output_size=1)
        (fc1): Conv2d(192, 12, kernel_size=(1, 1), stride=(1, 1), bias=False)
        (relu): ReLU()
        (fc2): Conv2d(12, 192, kernel_size=(1, 1), stride=(1, 1), bias=False)
        (sigmoid): Sigmoid()
      )
      (sa): SpatialAttention(
        (conv): Conv2d(2, 1, kernel_size=(7, 7), stride=(1, 1), padding=(3, 3), bias=False)
        (sigmoid): Sigmoid()
      )
    )
  )
  (enc3): Sequential(
    (0): MaxPool2d(kernel_size=2, stride=2, padding=0, dilation=1, ceil_mode=False)
    (1): DoubleConv(
      (block): Sequential(
        (0): Conv2d(192, 384, kernel_size=(3, 3), stride=(1, 1), padding=(1, 1))
        (1): BatchNorm2d(384, eps=1e-05, momentum=0.1, affine=True, track_running_stats=True)
        (2): ReLU(inplace=True)
        (3): Conv2d(384, 384, kernel_size=(3, 3), stride=(1, 1), padding=(1, 1))
        (4): BatchNorm2d(384, eps=1e-05, momentum=0.1, affine=True, track_running_stats=True)
        (5): ReLU(inplace=True)
      )
    )
    (2): CBAMBlock(
      (ca): ChannelAttention(
        (avg_pool): AdaptiveAvgPool2d(output_size=1)
        (max_pool): AdaptiveMaxPool2d(output_size=1)
        (fc1): Conv2d(384, 24, kernel_size=(1, 1), stride=(1, 1), bias=False)
        (relu): ReLU()
        (fc2): Conv2d(24, 384, kernel_size=(1, 1), stride=(1, 1), bias=False)
        (sigmoid): Sigmoid()
      )
      (sa): SpatialAttention(
        (conv): Conv2d(2, 1, kernel_size=(7, 7), stride=(1, 1), padding=(3, 3), bias=False)
        (sigmoid): Sigmoid()
      )
    )
  )
  (enc4): Sequential(
    (0): MaxPool2d(kernel_size=2, stride=2, padding=0, dilation=1, ceil_mode=False)
    (1): DoubleConv(
      (block): Sequential(
        (0): Conv2d(384, 768, kernel_size=(3, 3), stride=(1, 1), padding=(1, 1))
        (1): BatchNorm2d(768, eps=1e-05, momentum=0.1, affine=True, track_running_stats=True)
        (2): ReLU(inplace=True)
        (3): Conv2d(768, 768, kernel_size=(3, 3), stride=(1, 1), padding=(1, 1))
        (4): BatchNorm2d(768, eps=1e-05, momentum=0.1, affine=True, track_running_stats=True)
        (5): ReLU(inplace=True)
      )
    )
    (2): CBAMBlock(
      (ca): ChannelAttention(
        (avg_pool): AdaptiveAvgPool2d(output_size=1)
        (max_pool): AdaptiveMaxPool2d(output_size=1)
        (fc1): Conv2d(768, 48, kernel_size=(1, 1), stride=(1, 1), bias=False)
        (relu): ReLU()
        (fc2): Conv2d(48, 768, kernel_size=(1, 1), stride=(1, 1), bias=False)
        (sigmoid): Sigmoid()
      )
      (sa): SpatialAttention(
        (conv): Conv2d(2, 1, kernel_size=(7, 7), stride=(1, 1), padding=(3, 3), bias=False)
        (sigmoid): Sigmoid()
      )
    )
  )
  (bottleneck): DoubleConv(
    (block): Sequential(
      (0): Conv2d(768, 768, kernel_size=(3, 3), stride=(1, 1), padding=(2, 2), dilation=(2, 2))
      (1): BatchNorm2d(768, eps=1e-05, momentum=0.1, affine=True, track_running_stats=True)
      (2): ReLU(inplace=True)
      (3): Conv2d(768, 768, kernel_size=(3, 3), stride=(1, 1), padding=(2, 2), dilation=(2, 2))
      (4): BatchNorm2d(768, eps=1e-05, momentum=0.1, affine=True, track_running_stats=True)
      (5): ReLU(inplace=True)
    )
  )
  (self_attn): SelfAttnBlock(
    (query): Conv2d(768, 768, kernel_size=(1, 1), stride=(1, 1))
    (key): Conv2d(768, 768, kernel_size=(1, 1), stride=(1, 1))
    (value): Conv2d(768, 768, kernel_size=(1, 1), stride=(1, 1))
    (softmax): Softmax(dim=-1)
  )
  (up3): ConvTranspose2d(768, 384, kernel_size=(2, 2), stride=(2, 2))
  (dec3): Sequential(
    (0): DoubleConv(
      (block): Sequential(
        (0): Conv2d(768, 384, kernel_size=(3, 3), stride=(1, 1), padding=(1, 1))
        (1): BatchNorm2d(384, eps=1e-05, momentum=0.1, affine=True, track_running_stats=True)
        (2): ReLU(inplace=True)
        (3): Conv2d(384, 384, kernel_size=(3, 3), stride=(1, 1), padding=(1, 1))
        (4): BatchNorm2d(384, eps=1e-05, momentum=0.1, affine=True, track_running_stats=True)
        (5): ReLU(inplace=True)
      )
    )
    (1): CBAMBlock(
      (ca): ChannelAttention(
        (avg_pool): AdaptiveAvgPool2d(output_size=1)
        (max_pool): AdaptiveMaxPool2d(output_size=1)
        (fc1): Conv2d(384, 24, kernel_size=(1, 1), stride=(1, 1), bias=False)
        (relu): ReLU()
        (fc2): Conv2d(24, 384, kernel_size=(1, 1), stride=(1, 1), bias=False)
        (sigmoid): Sigmoid()
      )
      (sa): SpatialAttention(
        (conv): Conv2d(2, 1, kernel_size=(7, 7), stride=(1, 1), padding=(3, 3), bias=False)
        (sigmoid): Sigmoid()
      )
    )
  )
  (up2): ConvTranspose2d(384, 192, kernel_size=(2, 2), stride=(2, 2))
  (dec2): Sequential(
    (0): DoubleConv(
      (block): Sequential(
        (0): Conv2d(384, 192, kernel_size=(3, 3), stride=(1, 1), padding=(1, 1))
        (1): BatchNorm2d(192, eps=1e-05, momentum=0.1, affine=True, track_running_stats=True)
        (2): ReLU(inplace=True)
        (3): Conv2d(192, 192, kernel_size=(3, 3), stride=(1, 1), padding=(1, 1))
        (4): BatchNorm2d(192, eps=1e-05, momentum=0.1, affine=True, track_running_stats=True)
        (5): ReLU(inplace=True)
      )
    )
    (1): CBAMBlock(
      (ca): ChannelAttention(
        (avg_pool): AdaptiveAvgPool2d(output_size=1)
        (max_pool): AdaptiveMaxPool2d(output_size=1)
        (fc1): Conv2d(192, 12, kernel_size=(1, 1), stride=(1, 1), bias=False)
        (relu): ReLU()
        (fc2): Conv2d(12, 192, kernel_size=(1, 1), stride=(1, 1), bias=False)
        (sigmoid): Sigmoid()
      )
      (sa): SpatialAttention(
        (conv): Conv2d(2, 1, kernel_size=(7, 7), stride=(1, 1), padding=(3, 3), bias=False)
        (sigmoid): Sigmoid()
      )
    )
  )
  (up1): ConvTranspose2d(192, 96, kernel_size=(2, 2), stride=(2, 2))
  (dec1): Sequential(
    (0): DoubleConv(
      (block): Sequential(
        (0): Conv2d(192, 96, kernel_size=(3, 3), stride=(1, 1), padding=(1, 1))
        (1): BatchNorm2d(96, eps=1e-05, momentum=0.1, affine=True, track_running_stats=True)
        (2): ReLU(inplace=True)
        (3): Conv2d(96, 96, kernel_size=(3, 3), stride=(1, 1), padding=(1, 1))
        (4): BatchNorm2d(96, eps=1e-05, momentum=0.1, affine=True, track_running_stats=True)
        (5): ReLU(inplace=True)
      )
    )
    (1): CBAMBlock(
      (ca): ChannelAttention(
        (avg_pool): AdaptiveAvgPool2d(output_size=1)
        (max_pool): AdaptiveMaxPool2d(output_size=1)
        (fc1): Conv2d(96, 6, kernel_size=(1, 1), stride=(1, 1), bias=False)
        (relu): ReLU()
        (fc2): Conv2d(6, 96, kernel_size=(1, 1), stride=(1, 1), bias=False)
        (sigmoid): Sigmoid()
      )
      (sa): SpatialAttention(
        (conv): Conv2d(2, 1, kernel_size=(7, 7), stride=(1, 1), padding=(3, 3), bias=False)
        (sigmoid): Sigmoid()
      )
    )
  )
  (out_final): Conv2d(96, 3, kernel_size=(1, 1), stride=(1, 1))
  (out_half): Conv2d(192, 3, kernel_size=(1, 1), stride=(1, 1))
  (out_qter): Conv2d(384, 3, kernel_size=(1, 1), stride=(1, 1))
)

### Final Evaluation Metrics ###
Average PSNR: 28.0973 dB
Average SSIM: 0.815090
PSNR: Mean = 28.0973, Std = 4.3706
SSIM: Mean = 0.815090, Std = 0.142552

### Training and Validation Loss per Epoch ###
Epoch,TrainingLoss,ValidationLoss
1,1.492906,0.975414
2,0.952072,0.822676
3,0.860533,0.763496
4,0.830149,0.720922
5,0.807358,0.710262
6,0.808219,0.709615
…
